model.pt (torch, 236627 bytes, 10 tensors)

conv1.weight f4 [6, 3, 5, 5]
000000 34 c5 c0 bd 24 e6 4a ba ac e5 12 3d 48 10 01 bc
       -0.094126135 -0.0007739982 0.035863563 -0.007877417
000010 cc 63 a0 bd d5 63 f0 bc 4e 7e 3c be d5 bc aa bd
       -0.07831535 -0.029344479 -0.18407556 -0.08336798
000020 76 13 d4 bd 8a d1 50 bd 23 af 67 be 83 79 45 be
       -0.103552744 -0.050981082 -0.22625403 -0.19284634
000030 38 e7 23 be 5f f9 6f bd 88 9b 1a bd 2f c2 ac bd
       -0.16006172 -0.05858743 -0.037745982 -0.08435475
000040 f2 c9 24 be 74 b7 25 be ca 9a d4 bd 16 3b f5 bc
       -0.16092661 -0.16183263 -0.10381086 -0.029935401
000050 c3 01 31 be c5 69 2b bd 87 ff 20 be 90 76 e3 bd
       -0.17285828 -0.041848917 -0.15722476 -0.111065984
000060 f2 d2 d8 bc d9 ee 5e 3c 08 a4 55 bd 7e 70 0d bd
       -0.026467774 0.01360675 -0.052158386 -0.03453111
000070 3d 30 0e 3d df 49 33 bd 06 9d 11 3d cd 68 5e bd
       0.034713972 -0.04377162 0.03555014 -0.054299165
000080 eb 9a 37 3d 81 30 af bd 6d b9 dc bd 8e 0d f4 3c
       0.044825476 -0.08554173 -0.10777555 0.02979162
000090 a0 4e 62 3d 47 58 f1 bd e8 03 00 be 48 8b 4a be
       0.055250764 -0.11784416 -0.1250149 -0.19779694
0000a0 63 54 f4 bc bf 24 1c 3d 46 af 3a 3d b1 52 a5 3c
       -0.029825395 0.03812098 0.04557731 0.020181032
0000b0 0e b2 92 3b 8d f7 18 3d 1f b9 f4 bc 64 b9 6e bc
       0.004476792 0.037345458 -0.029873429 -0.014570568
0000c0 ab 3f 67 bc 0e 6c fc bc 0b 58 4e 3e d6 34 92 3e
       -0.014114301 -0.030813243 0.20150773 0.28555936
0000d0 ad 3f 96 3e f9 ad 54 3e aa 79 77 3e c5 35 dc 3d
       0.29345456 0.2076949 0.24167505 0.10752443
0000e0 84 3d 80 3e e5 17 11 3e 94 96 34 3e 2e b1 45 3e
       0.25046933 0.14169271 0.17635566 0.1930587
0000f0 22 dd 57 3e 35 14 99 3e 96 87 98 3e 22 c8 65 3e
       0.21080449 0.2989823 0.29790944 0.22439626
000100 3c be dd 3d 97 5f 96 3e 8d 24 74 3e 94 d9 24 3e
       0.108273 0.29369804 0.23842068 0.16098624
000110 f3 38 40 3d 48 a8 29 3d 09 66 1f 3e b3 84 20 3e
       0.04692931 0.04142025 0.15566267 0.1567562
000120 7e e2 4d 3e 50 04 a2 3d 34 ca 68 3d ef d0 7f be
       0.20105931 0.07910979 0.05683346 -0.24982046
000130 f9 9a 84 be 38 29 9c be f2 2c 0b be 8d 93 54 be
       -0.25899485 -0.30500197 -0.13591364 -0.20759411
000140 c2 e2 8b be 60 af 16 be cb aa 7a be 2d 1c 32 be
       -0.2732144 -0.14715338 -0.24479215 -0.1739356
000150 af b8 69 be 77 68 56 3e 82 73 28 3e 54 93 88 3e
       -0.22824357 0.20938288 0.16450313 0.26674902
000160 0e 74 7e 3e cf 36 3e 3e 25 14 03 3e d4 20 0b 3e
       0.24848959 0.18575595 0.12800653 0.13586742
000170 fc 69 e9 3d 64 2d 32 3e ce b9 c6 3d 96 eb 95 3e
       0.11397168 0.17400128 0.09703408 0.292813
000180 ee 4b 57 3d 30 44 f2 3d d2 32 22 3e f6 e4 cd 3d
       0.052562647 0.11829412 0.15839699 0.100534365
000190 fd 9f 59 be 8c ca 31 be a2 f6 8f be 80 d8 65 be
       -0.21252437 -0.17362422 -0.28117853 -0.2244587
0001a0 ab d9 45 bd 86 4c 6c bd 72 35 d9 bd 7e f6 3f be
       -0.048303287 -0.057690166 -0.10605897 -0.18746373
0001b0 c4 42 f3 bc bf 89 ff bd b9 7e 10 3e 09 ff fe 3d
       -0.029694922 -0.12477445 0.14110841 0.12450988
0001c0 98 fd 9b 3e ef 31 16 3e 88 22 95 3d d7 e2 ce 3d
       0.30466914 0.14667486 0.07281977 0.1010186
0001d0 ac a1 9b 3d 84 bf 43 bd 13 02 c2 bc 09 03 63 bc
       0.07599196 -0.047790065 -0.02368263 -0.013855704
0001e0 11 cf 2c 3e 5b 77 57 3d 52 2e 99 bd 36 aa 39 bd
       0.16875865 0.05260406 -0.07479538 -0.04532834
0001f0 9e d2 22 bd b3 3e a4 bc b1 0d 48 bc a7 dd 32 be
       -0.03975164 -0.020049429 -0.012210296 -0.17467366
000200 15 19 58 bc 76 7a 1c bd ef 2e e1 bc 3e 5b e1 bd
       -0.013189574 -0.038202725 -0.0274882 -0.11003731
000210 b1 03 57 3b 12 48 6e 3b 44 24 1c bd 1b b3 47 3d
       0.0032808597 0.0036358875 -0.038120523 0.048754793
000220 f2 d8 3d 3e 45 a1 46 3e ee ba 6f 3e 81 27 4c 3e
       0.1853979 0.19397457 0.23411152 0.19936945
000230 80 35 2d 3e 26 96 10 3e 1f 82 d4 3d 75 07 b8 bc
       0.1691494 0.14119777 0.10376381 -0.022464493
000240 03 03 51 3e e1 4b ff bb 55 fc a9 bd 3c 0d 71 bd
       0.20411305 -0.007791028 -0.08300082 -0.058850512
000250 eb 67 8f bd 8f d1 ee 3d 06 e9 de 3b 38 e8 91 bd
       -0.07002243 0.11661064 0.006802681 -0.0712437
000260 e0 d4 d9 3d 2b 63 1b bd 0a 93 be bd 6e 92 38 be
       0.10636306 -0.03793637 -0.09305389 -0.18024608
000270 e9 e6 2b be e9 27 6a be f8 b4 44 be 55 c3 13 be
       -0.16787304 -0.22866787 -0.19209659 -0.14429982
000280 e5 90 ef 3c 3a 57 d4 3c df 11 08 3e 86 b6 b0 3c
       0.029243896 0.0259205 0.13288067 0.021571409
000290 f3 c6 3c 3e 14 b1 0d 3e 10 bd 53 3d c6 b8 f4 3d
       0.18435268 0.13837081 0.051693976 0.11949305
0002a0 c2 9c e8 3c 3e 0b 44 be 4a ba 2c be 4d 5e 97 be
       0.02839506 -0.19144914 -0.16867939 -0.29564133
0002b0 12 3d c1 be a4 05 71 be 0c ed 43 be 4c be 33 bd
       -0.37741905 -0.23537308 -0.19133395 -0.043882653
0002c0 73 fe 17 be 80 0d 45 3d c9 ab ac bd 7f b6 b0 3c
       -0.14843158 0.048108578 -0.08431203 0.021571396
0002d0 ca e8 d1 bd 2c c6 5f be b2 b7 21 be ff 35 09 be
       -0.10249479 -0.2185294 -0.1579273 -0.13399504
0002e0 54 e8 64 be 7e 44 b8 3d d2 a8 b3 3d 57 e6 87 3e
       -0.22354251 0.08997439 0.08772434 0.26542923
0002f0 e1 5e a1 3e e9 96 06 3e cd 35 e2 3d a6 cc 10 3e
       0.315177 0.13143505 0.11045418 0.14140567
000300 57 4a 6a 3e d2 3b a1 bc cf 8f 19 bd ff c8 7f be
       0.22879921 -0.019681845 -0.037490662 -0.24979018
000310 65 d4 a7 be 4a 04 d8 be 7f 70 b3 be d0 61 f4 be
       -0.32779232 -0.42190772 -0.35046765 -0.47730875
000320 18 63 46 3d 5f 80 df 3d 97 69 c7 3d 32 51 01 3a
       0.048434347 0.10913157 0.097369365 0.00049330585
000330 81 03 be 3d 64 43 ff bd 6e 65 58 be a5 86 40 be
       0.09278012 -0.124640256 -0.21132442 -0.18801363
000340 10 68 19 be db a7 7a bd 5b ab 39 3e 3f 1f b1 3e
       -0.14981103 -0.061195236 0.18131773 0.3459415
000350 48 eb 97 3e 61 a9 dd 3e 89 fc a4 3e 53 64 ba 3e
       0.29671693 0.43293288 0.3222392 0.36404666
000360 78 b0 de 3e 52 ed b7 3e fe c3 93 3e ae 64 11 3e
       0.4349401 0.3592325 0.28860468 0.14198563
000370 57 d2 42 3e b8 81 22 3d 40 c4 43 be 59 28 2f be
       0.19025551 0.03967449 -0.19117832 -0.17105235
000380 26 39 cf bd 08 6b 30 3e 26 f3 2f 3e da 07 24 3d
       -0.10118322 0.17228329 0.17182598 0.04004655
000390 5e 5b 59 3e a1 86 c4 3e 0e d5 84 3e 19 a0 8c 3e
       0.2122626 0.38383964 0.25943798 0.27465895
0003a0 11 04 6a 3e 3f f5 53 3e 47 a2 c6 3e 2a d3 90 3e
       0.22853114 0.20699023 0.38795683 0.28286105
0003b0 27 6f b4 3e e2 b9 bc 3e bd 67 fa 3e b2 e3 95 3e
       0.35241053 0.36860567 0.4890727 0.2927528
0003c0 55 f1 a4 bd 70 00 e7 bc 17 e7 2c bd 6d 62 42 3b
       -0.08053843 -0.02819845 -0.042212572 0.0029660717
0003d0 67 8a e6 bd 36 d7 cb be 94 d0 2a bf 19 80 35 bf
       -0.11256867 -0.3981263 -0.66724515 -0.70898587
0003e0 6c 9e f4 be 93 b8 e7 be 09 71 ec bd 49 15 8a be
       -0.47777116 -0.45258006 -0.11544997 -0.26969364
0003f0 c6 3a ea bd 8c 13 70 be 0a 9a 2f be ee 0e 88 3d
       -0.114369914 -0.23444957 -0.17148605 0.066434726

conv1.bias f4 [6]
000000 a1 8a ed 3e 52 4a a0 be d9 54 57 bd 6b af 05 bf
       0.46394828 -0.31306702 -0.05257115 -0.5222079
000010 69 00 d6 3d 28 84 83 be
       0.10449297 -0.25686765

conv2.weight f4 [16, 6, 5, 5]
000000 5f 1e a8 3e 09 84 85 3e 93 7a 17 3e 6e 90 44 3e
       0.3283567 0.26077297 0.14792852 0.1919572
000010 1c 02 4b 3e b2 c4 2e 3e f9 f2 30 3d f5 2e 22 ba
       0.19825023 0.17067221 0.043200467 -0.0006186807
000020 aa ea 10 bb db 45 2a bd 19 a1 ec 3d 32 fc b2 3b
       -0.0022112527 -0.041570526 0.115541644 0.005462193
000030 23 01 ba bd f6 19 e5 bd 79 cf 37 be 53 05 2e 3d
       -0.09082248 -0.11186592 -0.17950238 0.042485546
000040 bb a9 86 bd 67 2c f2 bd 41 2b 1f be ec 6f 2b be
       -0.06575342 -0.11824875 -0.15543844 -0.16741914
000050 e7 94 a7 3c 7d 8c 51 bc 25 21 fa 3a 5f 9a 9d bd
       0.020456744 -0.012789843 0.0019083364 -0.076954596
000060 32 d5 25 be 39 2e 88 be ed 3a 60 be 89 ba e3 bd
       -0.16194609 -0.26597765 -0.21897478 -0.11119563
000070 8e 9f a5 bd 41 a3 68 be 65 0a 75 3d 11 b7 d8 3c
       -0.08087073 -0.22718526 0.059824366 0.02645448
000080 0c 87 5c ba 45 6b 8b bd 47 ed a3 3d 10 f6 02 3d
       -0.00084124575 -0.068075694 0.080042414 0.031972945
000090 3b 85 1c 3e 6c 3e d3 3c c5 68 70 3d 5a 88 c6 3d
       0.15285198 0.025786601 0.058693666 0.09693976
0000a0 ba 54 4b bd 87 d4 bc 39 bb 5d 16 3c ec b6 0b bd
       -0.04964135 0.000360165 0.0091776205 -0.034109995
0000b0 0d a1 68 bb 6a 1b e8 bc 31 e5 94 3d 39 d7 06 3e
       -0.0035496384 -0.028333385 0.07270277 0.13168038
0000c0 60 3c 07 3e 02 ac 34 3e 44 71 38 3d 35 fc 1c 3d
       0.13206625 0.17643741 0.045029894 0.03832646
0000d0 cf 71 b8 bd 96 4a d9 3c 22 e0 7d bd 9b 51 85 3c
       -0.09006082 0.026524823 -0.061981328 0.016274264
0000e0 b2 3f 53 3c 9f 20 ea bd 2a d7 ce bc 82 1d 71 3c
       0.012893604 -0.11432003 -0.025249083 0.014716508
0000f0 98 47 fb 3b 82 de cf 3c a5 35 7f 3d 1d c3 ad 3d
       0.0076684467 0.025374655 0.06230702 0.084844805
000100 0a 11 a8 bd 81 1f 00 3e f8 82 1a bd 0a 06 0b bd
       -0.08206375 0.12512018 -0.037722558 -0.033941306
000110 1e 53 0e be 4b 32 1f be b7 01 af 3d 99 06 b3 3d
       -0.13898894 -0.15546529 0.08545249 0.08741493
000120 42 69 57 3c 9b 96 3a bd 08 32 13 bb 71 69 2b 3d
       0.013147654 -0.045553785 -0.002246024 0.041848604
000130 42 d6 6e 3c 47 2f 97 3d 55 db 7e bc aa 5c d9 3c
       0.01457745 0.07382064 -0.0155552225 0.026533443
000140 28 37 74 3d e7 e3 56 bb a3 26 50 bd 1e b6 c0 3c
       0.059622914 -0.003278965 -0.050818097 0.02352434
000150 02 51 47 3c 8f 33 e9 3d d3 97 65 3d 98 27 30 bd
       0.01216531 0.11386787 0.056052994 -0.04300651
000160 43 91 21 bd f7 0f 7e 3d 74 3a 50 3d 89 60 5b bc
       -0.039445173 0.062026944 0.050836995 -0.013389715
000170 53 00 3a bd e1 c6 ad bc c0 4c e3 3c cd 55 52 3d
       -0.045410465 -0.021212997 0.027746558 0.051351357
000180 53 06 57 3d 31 fa ab 3d a3 c6 28 3e 50 9d 36 3e
       0.052496266 0.083973296 0.16482024 0.17833447
000190 15 98 d7 3c c4 c6 3f 3d 70 86 91 3c d8 63 6d 3d
       0.026317636 0.046820417 0.0177643 0.057956547
0001a0 46 d0 9f 3c 85 67 df 3b a2 67 88 bd 7c b7 fd bd
       0.019508492 0.0068177604 -0.066603914 -0.123885125
0001b0 7b a7 2a be 33 e4 74 bc 7a 0b 2d 3d ed eb 7c bd
       -0.16665451 -0.014946985 0.042247273 -0.061748434
0001c0 94 28 c3 bd f8 5b a8 bd 68 47 d7 bd 0b 0b 34 3d
       -0.09529224 -0.08220667 -0.105116665 0.043955844
0001d0 e5 ee 12 3d 8d 8e a4 3c 61 6d 4c bd 0b 17 8b bd
       0.03587236 0.020087505 -0.049909 -0.067915045
0001e0 5a 2b 4e 3e 24 ad 13 3d 80 66 ac bd 37 d7 d3 bd
       0.20133725 0.03605379 -0.08417988 -0.10343783
0001f0 bb d3 0c be f9 4d 97 bd 1a 0a ec bc ce 14 32 bd
       -0.13752644 -0.07387919 -0.02881341 -0.043476872
000200 a2 b8 dd bd 7f 36 8e bd cf db cb bd 58 a8 92 bc
       -0.108262315 -0.06943988 -0.099540345 -0.017902538
000210 6a ef 60 bd 23 5b 20 be 97 61 d1 bd 9d 41 d5 bd
       -0.054915823 -0.15659766 -0.10223692 -0.10412905
000220 fc 05 90 bc d9 6e 06 be 93 f2 dc bd c4 8d 1b be
       -0.017580979 -0.13128223 -0.10788455 -0.15190798
000230 42 53 81 bd 99 1f ef 3c 5a d5 69 3c 58 ff 13 bd
       -0.06314708 0.029189872 0.014272058 -0.036132187
000240 f2 1f 06 bd 5e 64 11 bd 08 3c 11 3e 40 69 d8 3c
       -0.03274531 -0.03549611 0.14183056 0.026417375
000250 4d 8d 42 3c 21 6e fc 3c 43 86 02 bd 56 b2 50 bc
       0.011874509 0.030814232 -0.031866323 -0.012737831
000260 2b 4c 12 be d3 3d e0 bd 72 49 bd bd 32 e4 94 ba
       -0.14286868 -0.10949292 -0.09242524 -0.0011359511
000270 e9 37 6c bd 03 3c 27 be 13 27 31 be c4 81 21 3d
       -0.057670508 -0.16331486 -0.17300062 0.039430395
000280 3a 7a fb ba 00 9b 5e bd 85 91 21 bd 3d fc 26 bd
       -0.0019186207 -0.05434704 -0.03944542 -0.040767897
000290 fb 46 b2 3d 52 5f 61 bd 52 57 4b bd 34 f3 0d 3d
       0.08704945 -0.055022545 -0.049643822 0.034655765
0002a0 8b ee 23 3d ff 44 ca 3d c3 a8 8f bd 46 29 49 3c
       0.040022414 0.09876441 -0.070146106 0.012277907
0002b0 1b 25 ab 3d 0b 86 53 3d db f5 15 3d fa f7 6d 3c
       0.08356687 0.051641505 0.03661142 0.014524454
0002c0 d4 c0 f2 bc 59 16 d5 bc a6 80 bb bd db 4e 7c bd
       -0.029632963 -0.026011633 -0.09155397 -0.06159864
0002d0 7f 02 3a 3d fd 85 13 bc a1 02 b0 bd dd b5 07 be
       0.045412537 -0.009004113 -0.085942514 -0.13252969
0002e0 0a 92 75 bc 24 b7 f1 bd 0e 8e 33 ba 6f a1 9e bd
       -0.014988432 -0.118025094 -0.0006849476 -0.07745635
0002f0 70 35 40 bd 53 f4 12 be 6c 7f 9d bd e4 fb 4a bd
       -0.046925962 -0.14351015 -0.076903194 -0.049556628
000300 7d 50 37 3d b1 4d 9a bd 6e 6c 0d be bc 52 e3 3d
       0.044754494 -0.0753435 -0.13810894 0.11099765
000310 40 b0 90 3d 1a d0 ec 39 46 48 1d bd 46 9c 20 be
       0.07064867 0.00045168475 -0.038399003 -0.15684614
000320 51 c0 47 3d df 03 be 3d 07 01 b0 3c dd 7e 40 bd
       0.04876739 0.09278082 0.021484865 -0.046995986
000330 6d 5e e9 bc ef 8b c3 3d 51 5f 78 bd a0 c4 c3 bd
       -0.028487409 0.095481746 -0.060637776 -0.095589876
000340 d2 db 3f bd c5 e5 d2 bd d5 ae d2 3d 96 ad b1 bd
       -0.046840496 -0.10297731 0.10287253 -0.08675687
000350 f4 fd d8 bd 79 85 e7 bc bf fa d1 3d de f8 e6 bc
       -0.10595313 -0.028261887 0.10252904 -0.028194841
000360 65 e2 0c 3d 00 d3 39 3d e6 80 25 3d 3c bb 68 bd
       0.034395594 0.04536724 0.04040613 -0.056819186
000370 68 82 8d 3d ba 4c 8d 3c 63 62 95 bc 0a 3f a4 bb
       0.06909639 0.0172485 -0.018235391 -0.0050123977
000380 5c a5 5b 3d c5 a8 5a bd c1 8d f7 3c 59 70 ee bc
       0.053624496 -0.053383607 0.03021896 -0.029106306
000390 42 6d 91 bd ad a5 18 bc 81 d9 c6 3d 2a ff fe 3d
       -0.071009174 -0.009316844 0.09709454 0.124510124
0003a0 a2 ee 07 3d 04 ce 25 be ed b0 d3 bd fc 6c 9b 3d
       0.033186562 -0.1619187 -0.1033648 0.075891465
0003b0 4c 15 55 3d 86 a7 23 bd 2e 8f c5 bd e2 51 40 3b
       0.052022263 -0.039954685 -0.0964645 0.002934568
0003c0 21 65 e2 bc 83 d1 a7 3d 1c e7 fa 3c f4 01 f2 3c
       -0.027636113 0.08194258 0.03062778 0.029541947
0003d0 14 af 27 bd e2 16 c7 bc 35 5a 9a 3c 6a 09 9e 3d
       -0.040938452 -0.024302904 0.018841842 0.07716639
0003e0 83 aa 04 bd ee 2d 0d bd 03 7a 9a bd 74 3c f2 bc
       -0.032389175 -0.03446763 -0.07542803 -0.029569842
0003f0 4a a1 64 be 3f ad 8e be cd b3 fb bd 29 ba 02 bd
       -0.22327152 -0.2786655 -0.12290154 -0.031915817

conv2.bias f4 [16]
000000 a9 55 31 bd f0 16 3e 3f 5d c0 2c be a2 19 8f 3d
       -0.043294583 0.7425375 -0.16870256 0.06987311
000010 cb 52 1b bf 4d 62 08 3e 95 89 51 3e f0 d9 d7 be
       -0.6067321 0.13318749 0.2046264 -0.4215846
000020 43 48 87 be c9 67 8c 3e 2e 72 0d 3f c3 44 bd be
       -0.2642232 0.27422932 0.5525235 -0.36966524
000030 33 98 23 be 03 81 3c 3f 0d 4a d6 3b ee dc d7 3d
       -0.15976028 0.73634356 0.0065395893 0.10540186

fc1.weight f4 [120, 400]
000000 ea 93 10 bd 42 f7 35 3d be f8 ce 3b a9 d5 c8 bc
       -0.03529731 0.044425257 0.0063162735 -0.024515944
000010 a5 5b e6 bc a0 76 dd bb 1b bf a6 bc 5c fa 38 3d
       -0.028119871 -0.006758526 -0.020354798 0.045160636
000020 ae 4a 7d 3c f2 52 fa bc d9 2e f6 3c 74 b9 b0 bc
       0.0154597 -0.03055713 0.030051636 -0.021572806
000030 32 06 75 3b f9 69 65 3d 40 d8 a5 bc da ea 54 3c
       0.0037387726 0.056009267 -0.020244718 0.012995446
000040 25 7a 0e bc 69 16 02 bd c3 86 84 3c 91 64 57 bd
       -0.008696114 -0.031759653 0.01617754 -0.052586142
000050 60 07 58 bd 8f 3e 8a b8 b1 4c 42 bd 6b 4b 4e bd
       -0.05274141 -6.592005e-05 -0.04743642 -0.050364893
000060 88 44 94 bd 46 a2 26 3d 94 c5 1e bd f8 16 da 3c
       -0.07239634 0.0406821 -0.038762644 0.02662228
000070 fe 48 1d ba 46 45 88 bb 67 0f 16 3d 3e d7 d2 3c
       -0.00059999514 -0.0041586487 0.036635783 0.025737401
000080 97 3c 34 3d 05 75 4b bb 0a ed 4a 3d 2b 32 54 3c
       0.044003095 -0.003104509 0.049542464 0.012951414
000090 67 bf ae bc 0d 34 eb 3c 18 57 af bb 2e 62 7a 3d
       -0.021331502 0.028711343 -0.0053509586 0.061128788
0000a0 87 3d ed bc 54 e0 e2 3b 58 c2 69 3d e1 17 f4 3b
       -0.028960003 0.0069237147 0.057070106 0.0074491356
0000b0 be ca 24 3d 9a a3 87 bb ce a2 4f 3d a4 d1 d6 bc
       0.040232413 -0.004139376 0.050692372 -0.026223011
0000c0 0a 1b 8a 3d c2 15 64 3d ae 7e 47 bd 1d f1 b9 3b
       0.067434385 0.055684812 -0.048704796 0.005674495
0000d0 6b 62 2f bd 8d a7 96 bc 93 a2 62 bc 0e 7b 40 bd
       -0.042818468 -0.018390441 -0.013832706 -0.046992354
0000e0 88 a5 1c bc d0 6d fe 3b f9 c6 ea 3c 20 11 9a 3d
       -0.00956095 0.0077645555 0.02865933 0.075227976
0000f0 ae 68 40 3b e4 be b2 3c f7 db 65 3b 18 08 66 3c
       0.002935927 0.02181954 0.0035073736 0.014040016
000100 61 a9 e1 bc 25 f4 a7 bc 72 d0 d4 bc 74 6f 7b bd
       -0.027546586 -0.02050216 -0.0259783 -0.061385587
000110 06 e4 5d bd 4c 63 43 3d 8d 3c b2 3b 6a 87 e8 bb
       -0.05417254 0.04770212 0.005439347 -0.0070962207
000120 8c 1e ec bb 68 94 b1 bc 13 7a 95 3d 3f 4b 41 bd
       -0.00720579 -0.02167721 0.072986744 -0.0471909
000130 19 0b 04 bc 1f 00 4f bd e9 dd ec bc 41 a4 01 bd
       -0.0080592865 -0.050537225 -0.028914409 -0.031650785
000140 cc fc 4f bd bb 4a 2a bd 1e cd a0 bd 92 da c9 bd
       -0.050778195 -0.041575175 -0.07851623 -0.09856142
000150 2e 22 c4 bd f5 8a ee bc f2 c4 9d bd 36 c3 44 3b
       -0.09576832 -0.029118994 -0.0770358 0.0030023581
000160 ba 69 c8 3c 0c 5a 42 bb eb 58 9d bd ca 78 d4 bd
       0.024464477 -0.0029655723 -0.076829754 -0.10374601
000170 45 18 e8 3c 36 35 d6 3c c5 85 8f 3d 8b b6 99 bd
       0.028331885 0.02614842 0.070079364 -0.075055204
000180 f2 bc 90 bd 98 c9 9b 3c 53 dd 78 bd 6a c1 cb 3c
       -0.070672885 0.019017026 -0.060757946 0.0248725
000190 1a 55 a6 bc 84 d0 30 3c 23 8e 22 3d b6 7c 90 39
       -0.020304251 0.0107919015 0.039686333 0.00027558737
0001a0 88 20 34 bd d3 19 8c bd cc be ce b8 ef 48 4c bc
       -0.043976337 -0.06840863 -9.858384e-05 -0.012468561
0001b0 9f d8 10 3c 7f ee 35 3d be 84 6b 3d 67 a3 32 bd
       0.008840709 0.0444169 0.05749964 -0.043612864
0001c0 e6 fb d6 3c ac e3 90 3d 37 d9 f6 bc 25 7d 46 3d
       0.026243161 0.07074675 -0.030132873 0.04845919
0001d0 56 1a 6b bb 31 24 aa 3d 90 f8 52 3d 8b 65 d9 3d
       -0.0035873852 0.08307684 0.05150658 0.10615071
0001e0 da 1f 1a 3d c1 4e 55 bc c6 3c 80 3d eb 07 c6 3d
       0.037628032 -0.013019265 0.062615916 0.09669479
0001f0 11 fd 63 3d 38 8f d8 bc 2d ad 0d 3d 5e 17 68 3c
       0.055661265 -0.02643548 0.03458898 0.014165727
000200 ff ca 8c 3d d1 a8 89 3d 15 f7 84 bd 26 d0 e7 b9
       0.06874656 0.06721652 -0.0649244 -0.00044214836
000210 ed 4d 82 bc 6e 74 e8 3c 43 9d 91 3c c0 40 cf bc
       -0.015906299 0.02837583 0.017775184 -0.02529943
000220 f9 f1 12 bd 35 b2 a8 bc 4e d6 c6 bc 88 c7 61 bd
       -0.035875294 -0.020592788 -0.02427211 -0.05512193
000230 a2 2a fa 3a 20 02 ae 3b 57 9a 71 bd 53 b0 b2 bd
       0.0019086192 0.005310312 -0.05898508 -0.087250374
000240 97 35 d2 bd 06 c5 0b 3d 5f 57 63 3d fd f2 05 bd
       -0.10264128 0.034123443 0.055503245 -0.032702435
000250 e9 ec c0 bc 44 d0 9f bd 6b fb 34 3d eb c3 71 3d
       -0.023550468 -0.078033954 0.044185083 0.059024733
000260 7f 21 9b 3c 01 86 c8 bc 78 46 22 3c da 3f de bc
       0.01893687 -0.02447796 0.009904496 -0.027130056
000270 3c 61 1e bd 46 69 88 bb 1a e4 6b 3d 70 4e 80 3c
       -0.03866695 -0.00416294 0.05759058 0.015662402
000280 83 60 8a bb 51 4a 6f bd 8b d8 36 3d 19 55 80 39
       -0.004222931 -0.058420483 0.044640105 0.00024477465
000290 52 c1 82 3d 25 b6 15 bd b0 0b 8f 3c d7 91 8f bb
       0.06384529 -0.03655066 0.017461628 -0.004381399
0002a0 b1 4c 29 3d a4 01 ff bb c4 6b 11 3c 1d 1c 55 3c
       0.041332904 -0.007782178 0.008875791 0.013007191
0002b0 a4 69 22 3d 1e cc ab bb 15 c6 c2 bb ad df 88 bd
       0.039651528 -0.0052428385 -0.0059440234 -0.06683288
0002c0 c2 31 87 bd 6a e6 af bd bf fd b6 bc 3f 64 eb bb
       -0.066012874 -0.0858887 -0.022337792 -0.007183581
0002d0 f8 e4 b7 bd 0d fe 66 bd 6a ad 3e 3d f4 07 39 3d
       -0.08979219 -0.056394625 0.0465521 0.0451736
0002e0 9a c1 5c 3d 68 cd d9 3c 32 56 5e 3d 41 74 99 3d
       0.05389557 0.026587203 0.05428142 0.07492877
0002f0 ee e9 cf 3d 86 db d7 3d b0 83 d5 3c 3d a2 b7 3c
       0.101520404 0.10539918 0.02606377 0.022416228
000300 84 81 72 3d 93 76 4a 3d 02 8c 32 3d 06 0a 7a 3a
       0.059205547 0.049429487 0.043590553 0.0009538237
000310 02 f3 94 3b d2 22 8a bc 53 26 9f bc 75 67 86 bd
       0.0045455704 -0.016862307 -0.019427454 -0.065627016
000320 4a 8c c8 bd 8a 04 bf bd c2 5a c0 bd 6e 23 31 bd
       -0.09792383 -0.09327038 -0.09392311 -0.04324668
000330 44 f4 b4 bc ef ff 5a bd 83 18 5c bd 1b 32 82 bd
       -0.022089131 -0.053466734 -0.053734314 -0.06357213
000340 9a 33 57 bd f7 ca 80 3b 78 5f 87 3d 50 59 d1 3c
       -0.052539445 0.0039304453 0.06610006 0.025555283
000350 2c 20 02 3d 80 59 16 3d e7 af 76 3b 6b 72 15 3e
       0.031768963 0.036706448 0.0037641467 0.14594428
000360 a5 7e af 3b d7 53 07 3d 6e e4 19 bc 72 92 4e bc
       0.0053556734 0.03303894 -0.009392841 -0.0126081575
000370 e0 fa 09 3e b7 8b b8 3d c6 a4 8c 3c d5 1c 55 bc
       0.13474607 0.090110235 0.017168414 -0.013007362
000380 96 1f c1 bd 8b 7a 8d b8 14 6b 1b bd 94 4b 55 3c
       -0.09429853 -6.746229e-05 -0.037943915 0.0130185075
000390 93 37 3b 3d 6e fb ba 3d 11 07 3c 3c 78 fb f8 bc
       0.045707297 0.09129988 0.011476294 -0.030393347
0003a0 e3 3c bb bc 4d 52 9a bc b0 3d 97 bc da ba 85 bc
       -0.022856181 -0.018838072 -0.018462032 -0.01632445
0003b0 e4 7d 9a bd b0 92 1f bd f2 32 5f bd 62 e3 1d bd
       -0.07543543 -0.03895825 -0.054491945 -0.038546927
0003c0 e6 50 0f bd 26 13 59 bd 25 cc 58 bd e7 14 86 bb
       -0.03498926 -0.052996777 -0.052929062 -0.004091847
0003d0 a0 57 02 3c ef 89 13 3d de df 30 bd 36 b9 60 bc
       0.007955462 0.036020216 -0.043182246 -0.013716033
0003e0 f6 a4 b0 3c ce c4 f7 bc b1 21 e5 3c 3e 0d 2c 3c
       0.021563035 -0.030245211 0.027970167 0.010501204
0003f0 75 52 82 3c fd 8b 97 bd fd f0 2c bd c1 3e ec 3c
       0.01590846 -0.073997475 -0.04222201 0.028838517

fc1.bias f4 [120]
000000 51 b3 ee 3d d9 da 25 bd 1a 90 09 3c e7 0b 39 bc
       0.11655296 -0.040491913 0.008396173 -0.011294342
000010 fb 42 bc 3d 77 8c 62 3c 57 ba 15 3e 74 c5 3a bd
       0.09192463 0.013827435 0.14621864 -0.045598462
000020 43 54 e9 3b 50 a7 ff 3d ce 99 04 bd 7e 2e 10 3e
       0.0071206405 0.12483084 -0.032373242 0.14080235
000030 59 fa 28 3d eb 39 8d bc 2b c2 ca bb f3 cd 92 3c
       0.041254375 -0.017239532 -0.0061876974 0.01792047
000040 45 2d a3 bd eb 95 e6 bc af e3 59 bd 62 9d e9 bd
       -0.07967619 -0.028147658 -0.05319565 -0.114069715
000050 4a 96 03 3d 9d f2 11 bb af d9 e5 3c 3b c5 9f bd
       0.03212575 -0.0022269853 0.028057901 -0.078012906
000060 4c b8 b2 bd 5c 28 fa bc c0 2c db bd 83 b5 49 bd
       -0.08726558 -0.030536823 -0.10701895 -0.04924537
000070 81 0d 31 bd 5b e3 3a bc dd 09 42 bd 37 1c ca 3d
       -0.04322577 -0.011406745 -0.047372688 0.09868663
000080 d6 af 97 3c b8 cf 19 3e 9e de 20 3e 66 42 06 be
       0.018516462 0.15020645 0.15709922 -0.13111266
000090 5f 17 e4 3d 35 14 27 bc 2b 9b 52 3d 3e 52 aa 3d
       0.1113727 -0.010197689 0.05141751 0.08316468
0000a0 af 7a c9 bc ea ab 29 3d e7 ae c0 bc 70 55 68 ba
       -0.024594633 0.041423716 -0.0235209 -0.0008862829
0000b0 88 d1 1a bc 54 6f ce 3d 9d 96 b7 bc 60 21 12 bd
       -0.00944937 0.10079828 -0.022410685 -0.03567636
0000c0 95 22 35 bd 80 d7 d4 bd 71 68 01 bd c1 99 2c 3e
       -0.044222433 -0.10392666 -0.031593744 0.16855527
0000d0 2d 3a b5 3c 01 12 6d bc cc d1 e0 3b b3 a3 61 bd
       0.022122467 -0.0144696245 0.0068609472 -0.055087756
0000e0 d2 d2 22 3e 13 c5 a5 3b 3c dc a2 3c 8e a7 3f 3d
       0.15900734 0.0050588935 0.019880407 0.046790652
0000f0 bb 93 ae 3d ea 7d 2e 3e 3f 55 71 bc 7b 1d 5d bc
       0.08524271 0.1704022 -0.014729797 -0.013495798
000100 3e f0 37 3e 40 b8 6f 3c 51 07 8e 3c 8f d3 43 bd
       0.17962739 0.014631331 0.017337473 -0.04780918
000110 f6 c5 3e bd 41 64 f7 bd f0 d5 50 bc 87 88 1a be
       -0.04657551 -0.12079669 -0.012746319 -0.15091144
000120 2d 40 05 3e f6 34 a5 3c 4e a6 8c 3d d9 34 55 3e
       0.13012762 0.020166855 0.068676576 0.20820941
000130 4c 28 12 bb 49 d3 47 3b 6a 68 1d 3e 43 63 be 3d
       -0.002230185 0.0030490926 0.15371862 0.092962764
000140 3d 01 7b 3d 69 7f 03 3d 44 80 b4 bc e2 35 14 3d
       0.061280478 0.03210393 -0.022033818 0.0361842
000150 e7 18 21 3d c1 66 2c bd bb c7 84 bd 62 2c ed 3c
       0.03933039 -0.04209018 -0.06483408 0.028951827
000160 f9 12 04 3d c3 d1 2e bd a2 7d 2a 3e f4 87 07 3e
       0.032244656 -0.042680513 0.16649488 0.13235456
000170 ab 17 25 bd c5 7c 0a be dd cb b3 3d 0f 37 33 3c
       -0.040305775 -0.13524158 0.08779118 0.01093842
000180 42 3f 89 3c 04 19 c0 3a 2b 1e 82 3d 78 ca 74 3d
       0.016753796 0.0014655893 0.0635341 0.0597634
000190 c1 29 b9 3d be 21 5c 3c f4 b5 af 3d ed 61 af bd
       0.09041167 0.013435779 0.08579627 -0.085636
0001a0 0f b6 91 3d 2f 04 17 3e 7f 89 94 3d 9d d9 3f bd
       0.07114803 0.1474769 0.07252788 -0.04683839
0001b0 b7 36 3a 3e f3 f7 34 bd 10 95 13 bd f7 44 e9 3d
       0.18184935 -0.044181775 -0.03603083 0.11390107
0001c0 e6 d4 4c bd 13 0d 05 bc bc ae f6 3d 3d 15 06 3c
       -0.050007723 -0.008120793 0.12045047 0.008183775
0001d0 e1 ff 48 bd 8d 14 83 bd 25 76 90 bc 59 e4 20 bd
       -0.04907215 -0.06400404 -0.01763446 -0.03928027

fc2.weight f4 [56, 120]
000000 b8 2a 18 be ee 49 8b bd 31 04 ef 3d ff 2c 42 bd
       -0.14860046 -0.0680121 0.11670721 -0.047406193
000010 55 53 96 3d 23 93 f2 3d 98 df d5 bd e7 ce 26 3d
       0.07340113 0.1184447 -0.10443038 0.04072466
000020 2b e7 c9 3d e2 b0 31 3e 54 3b ca bc bd e8 03 3e
       0.09858545 0.17352632 -0.024686493 0.12881751
000030 c4 4f bb 3d 43 13 74 bd 7b 13 8b 3d 65 0b 85 bd
       0.091460735 -0.059588682 0.06790825 -0.06496314
000040 a6 30 98 3c 24 6d 0e bd 92 00 14 3d 87 38 16 3d
       0.018577885 -0.034772053 0.036133356 0.036675002
000050 7f 32 a9 bd 1f 91 5f bd 66 6e a9 bd 90 6a 93 3d
       -0.082615845 -0.054581758 -0.0827301 0.071980596
000060 64 27 30 3d 10 3d d4 bd a7 b0 ab 3d 99 da 92 3d
       0.043006316 -0.10363209 0.08383303 0.071706004
000070 be 81 b1 bc 20 c8 c6 3d fe 2a c3 3d df 96 ae bd
       -0.021668311 0.097061396 0.095296845 -0.0852487
000080 ff 43 7a 3c 57 26 23 3c 0a 3d 9e bb 18 db c8 3b
       0.015275001 0.009957871 -0.0048290538 0.0061296336
000090 d7 84 d0 3c a1 b1 03 bd 29 dc a1 bd 00 f0 27 bc
       0.025453968 -0.032151822 -0.0790332 -0.010250092
0000a0 b7 96 c2 bd ac 8a f1 bd 88 53 7c bb 1e 4d 3d 3d
       -0.09501403 -0.11794028 -0.0038501937 0.046216123
0000b0 b9 33 19 be 58 51 5f 3e 59 05 99 bd 56 79 39 bc
       -0.14961137 0.21808374 -0.07471723 -0.011320433
0000c0 5a cc 03 be 20 4c 40 bd 04 30 5b 3d 1d 6b 93 bd
       -0.12870923 -0.0469476 0.05351259 -0.071981646
0000d0 2f a4 99 bc 21 26 60 3c f2 47 0e 3e 7d 5f 95 3d
       -0.018755047 0.013680966 0.13894632 0.072936036
0000e0 38 92 7b bd a5 03 a7 bd b3 56 e6 3c 23 d8 f3 bd
       -0.061418742 -0.08154992 0.028117513 -0.11906459
0000f0 92 65 01 bd ab 2d d1 bd a3 08 bc 3d c1 83 41 3e
       -0.031591006 -0.102137886 0.09181335 0.18897916
000100 22 50 ac bc f6 11 f6 bd b7 8e 99 b9 9e 6c 6a bd
       -0.021034304 -0.120151445 -0.00029288765 -0.05723249
000110 72 ab 04 bc fd 36 bd 3d a4 23 a3 3d 28 bf 06 3d
       -0.008097516 0.09239004 0.07965782 0.032897145
000120 18 93 89 bd c7 1a a8 3d d4 bc ac 3d c1 3a c7 bd
       -0.06717509 0.082082324 0.084344536 -0.09728003
000130 b6 4b 0b 3e fd ca 19 be 14 19 1a 3c 14 ec a2 3d
       0.136031 -0.1501884 0.009405393 0.079551846
000140 54 17 00 3e 04 cd ad 3d 6a ce e4 3c 33 1f 06 bd
       0.12508899 0.08486369 0.027930457 -0.032744598
000150 5b 6c ac 3c f6 44 7c bd ba ed c2 3d ba 74 c4 bd
       0.021047762 -0.061589204 0.09517999 -0.09592576
000160 10 ea 11 bd e1 4b 76 bd cc 19 8c bd fb 98 66 3d
       -0.03562361 -0.060130958 -0.06840858 0.056298237
000170 51 16 b6 bd d7 2e c1 bb 35 07 6d 3d 42 a1 ca bd
       -0.08890975 -0.0058954763 0.0578682 -0.09894039
000180 c9 61 cd bc 72 ef c7 3d 18 c1 a5 bd e0 2e 36 3d
       -0.025071042 0.097624674 -0.0809347 0.044478297
000190 ca 71 80 bd 7b 5d 04 be a0 6c 10 3e 78 fd 56 3d
       -0.062717035 -0.12926285 0.14103937 0.05248782
0001a0 66 ac d8 3d a6 06 ff bd c4 3f 2f 3c 6d 9f 8e bd
       0.105797574 -0.1245244 0.010696355 -0.06964002
0001b0 38 e7 e6 3c c1 9f 64 3d 1e a7 0e 3d b1 74 11 bd
       0.028186426 0.055816416 0.034827344 -0.035511676
0001c0 b1 19 92 bb 07 18 ee 3c e3 7c 1f 3d e9 01 2e 3d
       -0.004458629 0.029064192 0.03893746 0.04248229
0001d0 fc c5 d6 bd 5d 3d 7d 3c b9 5d 1b 3d ab e1 a3 bc
       -0.10486981 0.015456525 0.037931178 -0.020005068
0001e0 3b 35 ff 3c eb c4 a0 bc b9 ce f1 bd 07 8b 19 be
       0.031153312 -0.019625148 -0.11807007 -0.14994441
0001f0 27 08 bf 3c ee 45 c2 3d 5a 80 6e 3e 78 e7 95 bd
       0.023319317 0.09485994 0.2329115 -0.0731954
000200 28 4a 56 bd 24 59 c6 3d c4 9a 64 bd fc 2d 38 3e
       -0.052316815 0.09684971 -0.05581166 0.17986292
000210 72 b3 b4 bd 04 e1 9a 3d 1d e3 96 3d 49 3a b8 bd
       -0.08823289 0.075624496 0.07367537 -0.08995492
000220 1b 00 1d 3e 73 bb f2 bd 75 ed 57 bd 9a 87 f9 bc
       0.15332071 -0.11852159 -0.05271669 -0.030460168
000230 a3 a6 91 bd 88 d0 b6 bd 25 b9 45 3d b1 37 1d be
       -0.071118616 -0.08926493 0.04827227 -0.15353276
000240 a9 67 0b be a2 66 09 be aa ca 57 bc e0 5d 73 3d
       -0.13613762 -0.13418058 -0.0131708775 0.059415698
000250 42 a2 b6 bd d7 44 6f 3c f0 41 10 3d 70 94 a8 bb
       -0.08917667 0.014603815 0.035219133 -0.0051446483
000260 75 c0 ff 3d e8 af 64 3d c0 4d 78 3d 32 19 9d bd
       0.1248788 0.05583182 0.060621023 -0.07670821
000270 02 ac f0 bd c4 27 2e 3d bc c0 09 3e f0 33 0f be
       -0.11751558 0.042518392 0.13452429 -0.13984656
000280 56 21 4b bd 12 ae 2b bd 9b f8 c7 bc 9b 2d 79 bd
       -0.04959234 -0.041914053 -0.024410537 -0.06083451
000290 4e 77 02 be 08 d5 f7 3d 32 b2 bd bc 6f 67 d1 3d
       -0.12740824 0.12101179 -0.02315626 0.102248065
0002a0 09 00 22 3d 3c 90 9c bc 04 2a ab bc f0 5c 8e 3d
       0.039550815 -0.019111745 -0.020894058 0.0695132
0002b0 2a c3 e6 3d 81 1b 99 bd 77 87 51 bc 7c 38 34 bd
       0.11267693 -0.07475949 -0.012788645 -0.04399918
0002c0 b7 b4 b0 bd 37 cf 1f 3c 26 2b 80 3d 1c 14 e8 bc
       -0.086282186 0.009753994 0.0625823 -0.028329901
0002d0 48 d6 e2 bd 56 78 58 3e bd 69 b2 bd 15 66 0c 3d
       -0.11076027 0.21139655 -0.08711574 0.03427704
0002e0 98 51 34 3c 56 ef 6a 3d f9 c9 01 3d bd 17 db bc
       0.011005782 0.057357155 0.031686757 -0.026744718
0002f0 66 5c 35 3c 72 b1 06 be 33 dc 1d be e7 80 0a be
       0.011069393 -0.13153628 -0.1541603 -0.13525735
000300 b8 f2 a1 3d c3 52 49 bd 28 a1 cd bb 83 e6 53 be
       0.07907623 -0.049151193 -0.006275315 -0.20693402
000310 ac c0 9b bd 3c 86 61 3d c9 c5 cf 3d 8f 04 b3 bd
       -0.076051086 0.055059657 0.101451464 -0.08741104
000320 2d fe ed bc d7 45 eb 3d a4 98 b8 3d 14 0b d1 3c
       -0.029051865 0.1148793 0.09013489 0.025517978
000330 1e 9e bc bd b0 50 32 bd 20 12 4a 3d 05 d6 64 bc
       -0.09209846 -0.04353398 0.04933369 -0.013967042
000340 a8 d6 b9 3d f6 5e 07 3e 89 7b c2 3d 4d a7 3d 3d
       0.090741456 0.13219818 0.09496219 0.04630213
000350 cb fe d9 3d 57 9e 98 bc 56 e4 58 3c 30 23 06 3e
       0.10644301 -0.01863019 0.013238033 0.1309936
000360 d8 c3 3a bd fa 37 e5 bc 63 df 0b be 2d 63 89 3c
       -0.045596927 -0.027980793 -0.13659434 0.016770924
000370 6b d4 58 3d 03 d9 b5 bd f0 e7 e9 3d d3 9d 90 bc
       0.052936953 -0.08879282 0.11421192 -0.017653381
000380 1c d4 ca 3d 95 4e 98 3d 44 ae 20 3e fc 98 21 bd
       0.09903738 0.07436863 0.15691477 -0.039452538
000390 99 77 2d 3e a0 bb 8f 3d 84 70 0f be 04 e6 61 bd
       0.16940154 0.070182085 -0.14007765 -0.055151
0003a0 1b 02 8d bd 8d a2 02 3d f1 92 b8 bd fd c3 fe 3d
       -0.06885167 0.0318933 -0.09012402 0.124397255
0003b0 3b 02 ba bd 67 e9 e4 bc 0c 39 ab bd 37 01 24 3c
       -0.09082457 -0.027943326 -0.0836049 0.010010055
0003c0 c5 71 f7 bc 75 3f c0 bd aa b3 9d bd a7 c7 68 bd
       -0.030205617 -0.093871035 -0.07700284 -0.05683103
0003d0 57 87 53 3d 15 c6 86 bd bf 39 0d bd 0c e6 8f bc
       0.051642742 -0.0658075 -0.0344789 -0.01756575
0003e0 79 34 f0 bc 77 c7 e9 bc 34 4b a4 3d 1a e6 00 3a
       -0.029321896 -0.028537495 0.08022156 0.00049171003
0003f0 58 63 90 bd 5c 1d b7 bd 7e 5b fc bc ca 21 3b 3c
       -0.07050198 -0.08941147 -0.030805346 0.01142163

fc2.bias f4 [56]
000000 ed ba 33 bd fd 01 9c 3e 54 f9 19 3d df d7 33 3d
       -0.04387944 0.30470267 0.037591293 0.043907043
000010 08 a9 c1 3d 35 b4 56 3e 78 ea c0 3e 06 56 ce 3d
       0.09456068 0.20967181 0.37678885 0.100750014
000020 c9 ff 9b 3c 01 c4 d6 bd cd 8b 03 3e b9 a3 35 3d
       0.019042866 -0.104866035 0.12846299 0.04434559
000030 0b 20 90 3c bb 56 0d be 9e cf 13 3e 26 df 54 3c
       0.017593404 -0.13802616 0.14434668 0.012992656
000040 c1 c7 36 3e e5 e8 e6 bd 0b dc 10 3e 31 0b fe bb
       0.17849638 -0.1127489 0.1414644 -0.007752799
000050 5c 58 a8 3d 41 00 98 3d 16 d3 8c bd 1f bb 21 3e
       0.08219978 0.074219234 -0.06876199 0.15794037
000060 f9 91 4a 3d 77 63 c4 3d 5e cf 01 3d f4 4b a1 bd
       0.049455617 0.09589284 0.0316919 -0.07875815
000070 b1 18 fe 3d 86 15 35 3c 38 d6 62 3d 6e 12 4f bc
       0.12407053 0.011052495 0.055380076 -0.012638671
000080 15 8d 9b 3e 17 bd a4 3d db 25 13 bd 0b de 92 bd
       0.30381075 0.080438785 -0.035924774 -0.071712576
000090 8d f0 e9 bc e5 6c f1 3e cb fd 33 3e 28 69 f8 3d
       -0.028557086 0.47153392 0.17577283 0.12129432
0000a0 20 da 93 3d 98 e9 64 bd 0f 72 68 bd 2d 46 e9 3d
       0.072193384 -0.055886835 -0.0567494 0.11390338
0000b0 62 17 f3 3d 88 a2 c6 3c 1a 34 84 3e ef 13 21 3e
       0.11869694 0.024247423 0.25821 0.1573026
0000c0 f7 f0 c0 bd 2b 9c a8 bd 64 75 a5 bd 31 c4 95 bd
       -0.094209604 -0.08232912 -0.08079031 -0.07312811
0000d0 a2 c2 07 3e a7 89 56 3e 23 13 cc bd 2d 03 85 bd
       0.1325784 0.20950948 -0.099645875 -0.06494746

fc3.weight f4 [10, 56]
000000 3b c5 09 be cf e4 40 be f5 c2 80 bd 35 60 66 be
       -0.13454144 -0.18837284 -0.06287185 -0.22497638
000010 21 09 79 bb d9 99 b2 bd b6 a5 85 3e bc f9 97 be
       -0.0037999826 -0.0872075 0.2610299 -0.2968272
000020 6d 91 99 3d 84 25 89 3e 85 da 97 3e 89 43 ac 3d
       0.07498441 0.26786435 0.29658905 0.08411319
000030 5c d6 01 bd ef c1 54 bd 64 cd 13 be 24 a6 77 bd
       -0.03169857 -0.051942762 -0.14433819 -0.06046118
000040 1d 87 f8 3d 89 c0 87 bd 01 f6 50 be c7 1d ad 3c
       0.12135146 -0.0662852 -0.20406343 0.021132363
000050 9e c8 2f 3e b6 88 43 3c 0e 0a 2e bc f0 ab ca bd
       0.17166373 0.01193445 -0.010622514 -0.09896076
000060 89 68 c1 3d 0e 74 47 be c1 74 8a bd fe e2 62 3e
       0.094437666 -0.19477865 -0.0676055 0.22156903
000070 f1 00 09 3e 55 80 f2 bd bf 21 8a 3e cd 49 21 3e
       0.13379265 -0.11840884 0.2697887 0.15750809
000080 62 21 58 be 81 39 02 be 2a e5 b4 bd 44 39 71 3e
       -0.21106485 -0.12717248 -0.08832772 0.23557001
000090 b5 7c 62 3e d9 00 53 be 32 36 bd bd 8c 94 4d 3e
       0.22117884 -0.20605792 -0.092388526 0.20076197
0000a0 fb 5a 8a 3d 5e 22 a5 3d 0d 83 f3 3b c9 6a f5 3d
       0.067556344 0.08063196 0.007431394 0.11983258
0000b0 4d 79 3a 3e 03 04 95 3c 61 a3 59 3e 82 06 81 3d
       0.18210335 0.01819039 0.2125373 0.063000694
0000c0 20 65 e2 3d 51 81 e5 bc c2 1c 2f be 8f 2d 51 be
       0.11054444 -0.028015764 -0.17100814 -0.20427535
0000d0 bc a5 00 3e 31 3f 3b be 28 57 7c 3d 47 f7 75 3e
       0.12563223 -0.18285824 0.061606556 0.2402011
0000e0 b9 6d 7d be 9e bb 36 bd 9e e0 0f bd ae cc 0e be
       -0.24748887 -0.04461252 -0.03512632 -0.13945267
0000f0 86 4f e3 be 91 91 5d 3d 5c 96 2b 3d 77 cb bb 3d
       -0.4439661 0.0540939 0.04189144 0.09169667
000100 8f e9 14 be 33 de 11 be 9e 7a 53 3e 47 80 13 bc
       -0.1454222 -0.14244919 0.20652243 -0.009002752
000110 e1 8b 37 bc 2f 98 94 bc fc bb c0 3e 82 54 9f 3d
       -0.011202783 -0.018138973 0.3764342 0.077797905
000120 db c8 61 bc f2 e7 84 3e cd 35 81 bc 98 4b 7d 3e
       -0.013780798 0.2595821 -0.015772725 0.24735868
000130 38 fa 27 be d6 57 39 bc 3c 38 b6 3e f8 f0 59 bc
       -0.16404045 -0.011312446 0.35589778 -0.01330208
000140 42 bd ee bd 00 dd 53 3e a1 f0 2a 3d c3 44 c4 bd
       -0.11657192 0.20689774 0.041733388 -0.09583428
000150 d9 4f 7c be 11 f1 1d be 35 c9 3c 3e 55 93 0c 3e
       -0.24639834 -0.15423991 0.1843613 0.13728078
000160 f5 89 46 bd 14 cc 88 be 71 fd 1b be b9 02 93 bc
       -0.04847141 -0.267182 -0.15233399 -0.017945634
000170 91 a1 06 3e f1 0c 81 be 87 1f 20 be 84 2d 98 3e
       0.1314757 -0.25205186 -0.15637027 0.29722226
000180 51 c0 cd 3c d2 66 0b bb 87 83 b6 3c c7 56 79 3c
       0.025116118 -0.0021271002 0.022279514 0.015218443
000190 8d 95 a6 be 0a 3d c2 bc 2d c0 3a bd ef d3 2a 3e
       -0.32535973 -0.023710746 -0.04559343 0.16682409
0001a0 03 8f f0 bd f0 a9 fc 3c 2e b2 39 bd 4d 07 2d 3e
       -0.11746027 0.030842751 -0.04533594 0.16897316
0001b0 30 2a 10 be c4 9c cb bd b7 88 e1 3e ec e0 1a be
       -0.14078593 -0.0994201 0.44049618 -0.15124863
0001c0 60 b6 b5 3e 97 3a f5 3d 10 7c a5 3d d7 7b 3f 3e
       0.35490704 0.11974066 0.08080304 0.18699585
0001d0 a5 6a 1c 3c 04 b7 18 be 98 15 73 bd fe fd 1c bd
       0.00954691 -0.14913565 -0.059346765 -0.038328163
0001e0 d7 20 25 bd 21 b8 7d 3e 51 cb 30 3d 03 aa 2b be
       -0.04031452 0.24777271 0.043162648 -0.16764073
0001f0 e0 a4 51 3c 29 4b 17 be 0a c2 f3 bd 20 e7 85 3d
       0.012795657 -0.14774765 -0.119022444 0.06538224
000200 24 24 25 be 78 73 95 3c cc d2 a6 3d 32 c5 92 3d
       -0.16127068 0.018243536 0.08145675 0.07166518
000210 b0 a1 b6 bd d8 ea 13 bd 99 d6 04 be c2 6c 21 3e
       -0.08917558 -0.036112636 -0.12972488 0.15764144
000220 32 25 50 bd 1e d9 d8 bd 49 18 e3 bd 83 ba 1c 3e
       -0.050816722 -0.10588287 -0.110886164 0.15305524
000230 f4 ef 32 3e 9a 55 01 be e6 a7 ad 39 6d f4 11 3e
       0.17474347 -0.1263031 0.00033122225 0.14253397
000240 a9 e2 bf bc aa 46 2a 3e f3 e1 04 3e 81 ca 3d 3e
       -0.02342351 0.16628519 0.12976818 0.1853428
000250 d7 cc 8e 3c 17 b6 b8 3e fc 24 b0 3c 04 cb 63 be
       0.01743166 0.36076424 0.02150201 -0.22245413
000260 db ff d6 bd 7b 49 9b bd a8 9b ae bd 17 b5 8c 3e
       -0.10498019 -0.07582375 -0.08525783 0.2748191
000270 c2 99 eb 3d 98 43 6e bd 33 40 08 3c 5b ee 6c be
       0.11503936 -0.05816993 0.008316088 -0.231378
000280 bc 11 90 3d 24 d4 0f be 91 b4 c6 bc 13 69 0c be
       0.070346326 -0.14045769 -0.024256023 -0.13711958
000290 16 ca 43 bd 35 2e 58 bd d8 7c a4 bc 43 c4 25 3e
       -0.047800146 -0.05277844 -0.020079061 0.16188149
0002a0 ee d2 99 3d d7 1b f0 bd 83 e2 ca 3d af 42 ed 3c
       0.07510935 -0.1172406 0.09906485 0.028962461
0002b0 70 be 7a 3e a1 db 59 3d 52 84 5d be a0 b0 bb 3d
       0.24486709 0.05318797 -0.21632507 0.09164548
0002c0 5d a0 15 3d b3 84 3e 3d f2 1c f1 bd 5f 87 dd 3c
       0.036529887 0.04651327 -0.11773099 0.027042089
0002d0 42 21 09 bd 5b e8 ed 3d 6f 85 99 bd d6 f9 c3 bd
       -0.033478983 0.11616584 -0.074961536 -0.09569137
0002e0 74 45 fd 3d 8a 97 c5 3c ee a9 1c 3d 17 aa fd bd
       0.12366763 0.024120111 0.038247995 -0.12385958
0002f0 96 d3 0b bb 01 77 a9 bc 29 5a 5d bc 59 80 5f 3e
       -0.0021335832 -0.020686628 -0.013510265 0.21826304
000300 25 f4 6e 3c 61 54 6b be a4 39 e2 bd 09 33 c6 3d
       0.014584576 -0.22981407 -0.1104615 0.09677703
000310 52 d5 16 be 93 11 a5 3e 22 e5 03 be 9e 22 16 be
       -0.14729813 0.3223997 -0.12880376 -0.14661643
000320 11 cf de 3d e8 53 4f bd 45 6f a0 bc a5 fd ed ba
       0.108793385 -0.05061713 -0.019584307 -0.0018157257
000330 a4 47 be bd 7b 58 51 3e ec bd 3f bc 3a e6 32 be
       -0.09291008 0.20443909 -0.011702996 -0.17470637
000340 2f 9c 02 3d de 7a ca 3c cb 33 88 bc 0c 8a bf bb
       0.03188723 0.02471679 -0.01662626 -0.005845314
000350 63 63 23 3e e0 0c c8 3d c8 5c e1 bd 63 73 0e be
       0.15955882 0.09768081 -0.11004025 -0.13911204
000360 32 4d be 3d 0e 2f ef 3d 7b ad 01 be 35 06 00 3e
       0.092920676 0.11678897 -0.12663834 0.12502368
000370 ac eb 7d be 70 db 3b 3e bc 0e ad bd bf 3e 6c bd
       -0.24796933 0.18345428 -0.08450076 -0.057677027
000380 c9 59 03 bd 3d b7 a0 3e e3 2f 35 bd 61 8b 45 3e
       -0.032068048 0.313898 -0.04423512 0.1929145
000390 fb 02 05 3e f4 8d b5 be d3 95 bc 3e 3b 9c 77 bd
       0.12989418 -0.35459864 0.36833057 -0.060451727
0003a0 7c fe de 3d d1 b6 1f be 1d f8 26 3c e2 c9 28 be
       0.10888383 -0.15597083 0.010190991 -0.16483262
0003b0 b1 39 01 3e f0 8b 02 3d ab 4a 28 bd e5 e6 98 bc
       0.12619664 0.031871736 -0.041086834 -0.018664787
0003c0 57 22 f1 bd d6 6c 9d 3d cf ac c2 3d 36 be f5 3d
       -0.11774128 0.076867744 0.09505617 0.119991705
0003d0 bb 1c 37 bc 9b 9a aa bb 4e 5c 0a be 23 45 81 be
       -0.0111762835 -0.0052064187 -0.13511774 -0.2524806
0003e0 9e 92 08 3d 07 db 13 bd 6e 44 a6 bd 89 7d 70 bd
       0.03334295 -0.036097553 -0.08118521 -0.05871347
0003f0 c5 9e d3 3d 74 1d a0 bd 35 67 8c be d2 6a 11 be
       0.10333017 -0.07818118 -0.2742249 -0.14200905

fc3.bias f4 [10]
000000 b7 03 3a be 20 78 18 bf 2c c5 e0 3d 3e 02 3c 3e
       -0.1816548 -0.59558296 0.109751076 0.1836023
000010 d6 4c 35 3f 87 f7 8c be db 20 d3 3e 6b 74 0c bd
       0.7082037 -0.27532598 0.41236004 -0.034290712
000020 3e 35 9f 3e 2e fc 88 be
       0.31095308 -0.26754898
